…
11:07:24  CSDI model with parameters: {'training': True, '_parameters': OrderedDict(), '_buffers': OrderedDict(), '_non_persistent_buffers_set': set(), '_backward_pre_hooks': OrderedDict(), '_backward_hooks': OrderedDict(), '_is_full_backward_hook': None, '_forward_hooks': OrderedDict(), '_forward_hooks_with_kwargs': OrderedDict(), '_forward_pre_hooks': OrderedDict(), '_forward_pre_hooks_with_kwargs': OrderedDict(), '_state_dict_hooks': OrderedDict(), '_state_dict_pre_hooks': OrderedDict(), '_load_state_dict_pre_hooks': OrderedDict(), '_load_state_dict_post_hooks': OrderedDict(), '_modules': OrderedDict([('embed_layer', Embedding(4, 16)), ('diffmodel', diff_CSDI(
  (diffusion_embedding): DiffusionEmbedding(
    (projection1): Linear(in_features=128, out_features=128, bias=True)
    (projection2): Linear(in_features=128, out_features=128, bias=True)
  )
  (input_projection): Conv1d(2, 64, kernel_size=(1,), stride=(1,))
  (output_projection1): Conv1d(64, 64, kernel_size=(1,), stride=(1,))
  (output_projection2): Conv1d(64, 1, kernel_size=(1,), stride=(1,))
  (residual_layers): ModuleList(
    (0-3): 4 x ResidualBlock(
      (diffusion_projection): Linear(in_features=128, out_features=64, bias=True)
      (cond_projection): Conv1d(145, 128, kernel_size=(1,), stride=(1,))
      (mid_projection): Conv1d(64, 128, kernel_size=(1,), stride=(1,))
      (output_projection): Conv1d(64, 128, kernel_size=(1,), stride=(1,))
      (time_layer): TransformerEncoder(
        (layers): ModuleList(
          (0): TransformerEncoderLayer(
            (self_attn): MultiheadAttention(
              (out_proj): NonDynamicallyQuantizableLinear(in_features=64, out_features=64, bias=True)
            )
            (linear1): Linear(in_features=64, out_features=64, bias=True)
            (dropout): Dropout(p=0.1, inplace=False)
            (linear2): Linear(in_features=64, out_features=64, bias=True)
            (norm1): LayerNorm((64,), eps=1e-05, elementwise_affine=True)
            (norm2): LayerNorm((64,), eps=1e-05, elementwise_affine=True)
            (dropout1): Dropout(p=0.1, inplace=False)
            (dropout2): Dropout(p=0.1, inplace=False)
          )
        )
      )
      (feature_layer): TransformerEncoder(
        (layers): ModuleList(
          (0): TransformerEncoderLayer(
            (self_attn): MultiheadAttention(
              (out_proj): NonDynamicallyQuantizableLinear(in_features=64, out_features=64, bias=True)
            )
            (linear1): Linear(in_features=64, out_features=64, bias=True)
            (dropout): Dropout(p=0.1, inplace=False)
            (linear2): Linear(in_features=64, out_features=64, bias=True)
            (norm1): LayerNorm((64,), eps=1e-05, elementwise_affine=True)
            (norm2): LayerNorm((64,), eps=1e-05, elementwise_affine=True)
            (dropout1): Dropout(p=0.1, inplace=False)
            (dropout2): Dropout(p=0.1, inplace=False)
          )
        )
      )
    )
  )
))]), 'device': 'cuda', 'target_dim': 4, 'emb_time_dim': 128, 'emb_feature_dim': 16, 'is_unconditional': False, 'target_strategy': 'fixed', 'get_mask': <bound method CSDI_base.get_fixed_mask of CSDI_Stock(
  (embed_layer): Embedding(4, 16)
  (diffmodel): diff_CSDI(
    (diffusion_embedding): DiffusionEmbedding(
      (projection1): Linear(in_features=128, out_features=128, bias=True)
      (projection2): Linear(in_features=128, out_features=128, bias=True)
    )
    (input_projection): Conv1d(2, 64, kernel_size=(1,), stride=(1,))
    (output_projection1): Conv1d(64, 64, kernel_size=(1,), stride=(1,))
    (output_projection2): Conv1d(64, 1, kernel_size=(1,), stride=(1,))
    (residual_layers): ModuleList(
      (0-3): 4 x ResidualBlock(
        (diffusion_projection): Linear(in_features=128, out_features=64, bias=True)
        (cond_projection): Conv1d(145, 128, kernel_size=(1,), stride=(1,))
        (mid_projection): Conv1d(64, 128, kernel_size=(1,), stride=(1,))
        (output_projection): Conv1d(64, 128, kernel_size=(1,), stride=(1,))
        (time_layer): TransformerEncoder(
          (layers): ModuleList(
            (0): TransformerEncoderLayer(
              (self_attn): MultiheadAttention(
                (out_proj): NonDynamicallyQuantizableLinear(in_features=64, out_features=64, bias=True)
              )
              (linear1): Linear(in_features=64, out_features=64, bias=True)
              (dropout): Dropout(p=0.1, inplace=False)
              (linear2): Linear(in_features=64, out_features=64, bias=True)
              (norm1): LayerNorm((64,), eps=1e-05, elementwise_affine=True)
              (norm2): LayerNorm((64,), eps=1e-05, elementwise_affine=True)
              (dropout1): Dropout(p=0.1, inplace=False)
              (dropout2): Dropout(p=0.1, inplace=False)
            )
          )
        )
        (feature_layer): TransformerEncoder(
          (layers): ModuleList(
            (0): TransformerEncoderLayer(
              (self_attn): MultiheadAttention(
                (out_proj): NonDynamicallyQuantizableLinear(in_features=64, out_features=64, bias=True)
              )
              (linear1): Linear(in_features=64, out_features=64, bias=True)
              (dropout): Dropout(p=0.1, inplace=False)
              (linear2): Linear(in_features=64, out_features=64, bias=True)
              (norm1): LayerNorm((64,), eps=1e-05, elementwise_affine=True)
              (norm2): LayerNorm((64,), eps=1e-05, elementwise_affine=True)
              (dropout1): Dropout(p=0.1, inplace=False)
              (dropout2): Dropout(p=0.1, inplace=False)
            )
          )
        )
      )
    )
  )
)>, 'emb_total_dim': 145, 'num_steps': 50, 'beta': array([… ), 'alpha_hat': array([… ), 'alpha': array([… ), 'alpha_torch': tensor([[[… device='cuda:0')}
11:07:24  training start with epochs:200,learning_rate:0.001
…
